ssh://changjy@115.156.197.252:43722/opt/anaconda/anaconda3/bin/python -u /home/changjy/pycharm_mapping/pycharm_project_148/final_proj/task.py
Console output is saving to: /Users/jiayuchang/PycharmProjects/MLcoursework/final_proj
_________________________________________________________________
Layer (type)                 Output Shape              Param #   
=================================================================
dense_1 (Dense)              (None, 12)                156       
_________________________________________________________________
dense_2 (Dense)              (None, 12)                156       
_________________________________________________________________
batch_normalization_1 (Batch (None, 12)                48        
_________________________________________________________________
dense_3 (Dense)              (None, 12)                156       
_________________________________________________________________
batch_normalization_2 (Batch (None, 12)                48        
_________________________________________________________________
dense_4 (Dense)              (None, 12)                156       
_________________________________________________________________
batch_normalization_3 (Batch (None, 12)                48        
_________________________________________________________________
dense_5 (Dense)              (None, 12)                156       
_________________________________________________________________
batch_normalization_4 (Batch (None, 12)                48        
_________________________________________________________________
dense_6 (Dense)              (None, 12)                156       
_________________________________________________________________
batch_normalization_5 (Batch (None, 12)                48        
_________________________________________________________________
dense_7 (Dense)              (None, 12)                156       
_________________________________________________________________
batch_normalization_6 (Batch (None, 12)                48        
_________________________________________________________________
dense_8 (Dense)              (None, 12)                156       
_________________________________________________________________
batch_normalization_7 (Batch (None, 12)                48        
_________________________________________________________________
dense_9 (Dense)              (None, 12)                156       
_________________________________________________________________
batch_normalization_8 (Batch (None, 12)                48        
_________________________________________________________________
dense_10 (Dense)             (None, 12)                156       
_________________________________________________________________
batch_normalization_9 (Batch (None, 12)                48        
_________________________________________________________________
dense_11 (Dense)             (None, 12)                156       
_________________________________________________________________
batch_normalization_10 (Batc (None, 12)                48        
_________________________________________________________________
dense_12 (Dense)             (None, 12)                156       
_________________________________________________________________
batch_normalization_11 (Batc (None, 12)                48        
_________________________________________________________________
dense_13 (Dense)             (None, 12)                156       
_________________________________________________________________
batch_normalization_12 (Batc (None, 12)                48        
_________________________________________________________________
dense_14 (Dense)             (None, 2)                 26        
=================================================================
Total params: 2,630
Trainable params: 2,342
Non-trainable params: 288
_________________________________________________________________
None
2019-04-21 21:09:19.664074: I tensorflow/core/platform/cpu_feature_guard.cc:140] Your CPU supports instructions that this TensorFlow binary was not compiled to use: SSE4.1 SSE4.2 AVX AVX2 FMA
…
TypeError: Fetch argument <tensorflow.python.keras._impl.keras.callbacks.History object at 0x7fcc14ee7ba8> has invalid type <class 'tensorflow.python.keras._impl.keras.callbacks.History'>, must be a string or Tensor. (Can not convert a History into a Tensor or Operation.)

Process finished with exit code 1





new

ssh://changjy@115.156.197.252:43722/opt/anaconda/anaconda3/bin/python -u /home/changjy/pycharm_mapping/pycharm_project_148/final_proj/task.py
Console output is saving to: /Users/jiayuchang/PycharmProjects/MLcoursework/final_proj
_________________________________________________________________
Layer (type)                 Output Shape              Param #   
=================================================================
dense_1 (Dense)              (None, 12)                156       
_________________________________________________________________
dense_2 (Dense)              (None, 12)                156       
_________________________________________________________________
batch_normalization_1 (Batch (None, 12)                48        
_________________________________________________________________
dense_3 (Dense)              (None, 12)                156       
_________________________________________________________________
batch_normalization_2 (Batch (None, 12)                48        
_________________________________________________________________
dense_4 (Dense)              (None, 12)                156       
_________________________________________________________________
batch_normalization_3 (Batch (None, 12)                48        
_________________________________________________________________
dense_5 (Dense)              (None, 12)                156       
_________________________________________________________________
batch_normalization_4 (Batch (None, 12)                48        
_________________________________________________________________
dense_6 (Dense)              (None, 12)                156       
_________________________________________________________________
batch_normalization_5 (Batch (None, 12)                48        
_________________________________________________________________
dense_7 (Dense)              (None, 12)                156       
_________________________________________________________________
batch_normalization_6 (Batch (None, 12)                48        
_________________________________________________________________
dense_8 (Dense)              (None, 12)                156       
_________________________________________________________________
batch_normalization_7 (Batch (None, 12)                48        
_________________________________________________________________
dense_9 (Dense)              (None, 12)                156       
_________________________________________________________________
batch_normalization_8 (Batch (None, 12)                48        
_________________________________________________________________
dense_10 (Dense)             (None, 2)                 26        
=================================================================
Total params: 1,814
Trainable params: 1,622
Non-trainable params: 192
_________________________________________________________________
None
2019-04-21 21:11:40.239866: I tensorflow/core/platform/cpu_feature_guard.cc:140] Your CPU supports instructions that this TensorFlow binary was not compiled to use: SSE4.1 SSE4.2 AVX AVX2 FMA
…
TypeError: Fetch argument <tensorflow.python.keras._impl.keras.callbacks.History object at 0x7f80829f9438> has invalid type <class 'tensorflow.python.keras._impl.keras.callbacks.History'>, must be a string or Tensor. (Can not convert a History into a Tensor or Operation.)

Process finished with exit code 1



new

ssh://changjy@115.156.197.252:43722/opt/anaconda/anaconda3/bin/python -u /home/changjy/pycharm_mapping/pycharm_project_148/final_proj/task.py
Console output is saving to: /Users/jiayuchang/PycharmProjects/MLcoursework/final_proj
_________________________________________________________________
Layer (type)                 Output Shape              Param #   
=================================================================
dense_1 (Dense)              (None, 12)                156       
_________________________________________________________________
dense_2 (Dense)              (None, 12)                156       
_________________________________________________________________
dense_3 (Dense)              (None, 12)                156       
_________________________________________________________________
dense_4 (Dense)              (None, 12)                156       
_________________________________________________________________
dense_5 (Dense)              (None, 12)                156       
_________________________________________________________________
dense_6 (Dense)              (None, 12)                156       
_________________________________________________________________
dense_7 (Dense)              (None, 12)                156       
_________________________________________________________________
dense_8 (Dense)              (None, 12)                156       
_________________________________________________________________
dense_9 (Dense)              (None, 12)                156       
_________________________________________________________________
dense_10 (Dense)             (None, 2)                 26        
=================================================================
Total params: 1,430
Trainable params: 1,430
Non-trainable params: 0
_________________________________________________________________
None
2019-04-21 21:13:55.373476: I tensorflow/core/platform/cpu_feature_guard.cc:140] Your CPU supports instructions that this TensorFlow binary was not compiled to use: SSE4.1 SSE4.2 AVX AVX2 FMA
…
